…
cfg_block: {'embed_dim': 128, 'num_heads': 8, 'ffn_ratio': 4, 'dropout': 0.1, 'attn_dropout': 0.1, 'activation_dropout': 0.1, 'add_bias_kv': False, 'activation': 'gelu', 'scale_fc': True, 'scale_attn': True, 'scale_heads': True, 'scale_resids': True}
cfg_cls_block: {'embed_dim': 128, 'num_heads': 8, 'ffn_ratio': 4, 'dropout': 0, 'attn_dropout': 0, 'activation_dropout': 0, 'add_bias_kv': False, 'activation': 'gelu', 'scale_fc': True, 'scale_attn': True, 'scale_heads': True, 'scale_resids': True}
Finished building model:
ParticleTransformer(
  (trimmer): SequenceTrimmer()
  (embed): Embed(
    (input_bn): BatchNorm1d(13, eps=1e-05, momentum=0.1, affine=True, track_running_stats=True)
    (embed): Sequential(
      (0): LayerNorm((13,), eps=1e-05, elementwise_affine=True)
      (1): Linear(in_features=13, out_features=128, bias=True)
      (2): GELU(approximate='none')
      (3): LayerNorm((128,), eps=1e-05, elementwise_affine=True)
      (4): Linear(in_features=128, out_features=512, bias=True)
      (5): GELU(approximate='none')
      (6): LayerNorm((512,), eps=1e-05, elementwise_affine=True)
      (7): Linear(in_features=512, out_features=128, bias=True)
      (8): GELU(approximate='none')
    )
  )
  (pair_embed): PairEmbed(
    (embed): Sequential(
      (0): BatchNorm1d(4, eps=1e-05, momentum=0.1, affine=True, track_running_stats=True)
      (1): Conv1d(4, 64, kernel_size=(1,), stride=(1,))
      (2): BatchNorm1d(64, eps=1e-05, momentum=0.1, affine=True, track_running_stats=True)
      (3): GELU(approximate='none')
      (4): Conv1d(64, 64, kernel_size=(1,), stride=(1,))
      (5): BatchNorm1d(64, eps=1e-05, momentum=0.1, affine=True, track_running_stats=True)
      (6): GELU(approximate='none')
      (7): Conv1d(64, 64, kernel_size=(1,), stride=(1,))
      (8): BatchNorm1d(64, eps=1e-05, momentum=0.1, affine=True, track_running_stats=True)
      (9): GELU(approximate='none')
      (10): Conv1d(64, 8, kernel_size=(1,), stride=(1,))
      (11): BatchNorm1d(8, eps=1e-05, momentum=0.1, affine=True, track_running_stats=True)
      (12): GELU(approximate='none')
    )
  )
  (blocks): ModuleList(
    (0-7): 8 x Block(
      (pre_attn_norm): LayerNorm((128,), eps=1e-05, elementwise_affine=True)
      (attn): MultiheadAttention(
        (out_proj): NonDynamicallyQuantizableLinear(in_features=128, out_features=128, bias=True)
      )
      (post_attn_norm): LayerNorm((128,), eps=1e-05, elementwise_affine=True)
      (dropout): Dropout(p=0.1, inplace=False)
      (pre_fc_norm): LayerNorm((128,), eps=1e-05, elementwise_affine=True)
      (fc1): Linear(in_features=128, out_features=512, bias=True)
      (act): GELU(approximate='none')
      (act_dropout): Dropout(p=0.1, inplace=False)
      (post_fc_norm): LayerNorm((512,), eps=1e-05, elementwise_affine=True)
      (fc2): Linear(in_features=512, out_features=128, bias=True)
    )
  )
  (cls_blocks): ModuleList(
    (0-1): 2 x Block(
      (pre_attn_norm): LayerNorm((128,), eps=1e-05, elementwise_affine=True)
      (attn): MultiheadAttention(
        (out_proj): NonDynamicallyQuantizableLinear(in_features=128, out_features=128, bias=True)
      )
      (post_attn_norm): LayerNorm((128,), eps=1e-05, elementwise_affine=True)
      (dropout): Dropout(p=0, inplace=False)
      (pre_fc_norm): LayerNorm((128,), eps=1e-05, elementwise_affine=True)
      (fc1): Linear(in_features=128, out_features=512, bias=True)
      (act): GELU(approximate='none')
      (act_dropout): Dropout(p=0, inplace=False)
      (post_fc_norm): LayerNorm((512,), eps=1e-05, elementwise_affine=True)
      (fc2): Linear(in_features=512, out_features=128, bias=True)
    )
  )
  (norm): LayerNorm((128,), eps=1e-05, elementwise_affine=True)
  (fc): Sequential(
    (0): Linear(in_features=128, out_features=16, bias=True)
  )
)
#trainable parameters = 2143732
Using AdamW optimizer.
Training for 100 epochs.
#batches(train) = 3
Starting training...
 current time: 2024-05-08 10:42:12.944215
Processing epoch #0
 current time: 2024-05-08 10:42:12.949657
::::: TRAIN LOOP :::::
Training model
Finished training model
/opt/conda/lib/python3.10/site-packages/torch/nn/functional.py:5109: UserWarning: Support for mismatched key_padding_mask and attn_mask is deprecated. Use same type for both instead.
…
