…
[6/10] Loading from /home/laurits/ENREG/ntuples/20240402_full_stats/ZH_Htautau/reco_p8_ee_ZH_Htautau_ecm380_202350.parquet
[7/10] Loading from /home/laurits/ENREG/ntuples/20240402_full_stats/ZH_Htautau/reco_p8_ee_ZH_Htautau_ecm380_204160.parquet
[8/10] Loading from /home/laurits/ENREG/ntuples/20240402_full_stats/ZH_Htautau/reco_p8_ee_ZH_Htautau_ecm380_204086.parquet
[9/10] Loading from /home/laurits/ENREG/ntuples/20240402_full_stats/ZH_Htautau/reco_p8_ee_ZH_Htautau_ecm380_204233.parquet
[10/10] Loading from /home/laurits/ENREG/ntuples/20240402_full_stats/ZH_Htautau/reco_p8_ee_ZH_Htautau_ecm380_201765.parquet
Input data loaded
Using device: cuda
Building model...
Finished building model:
LorentzNet(
  (embedding): Linear(in_features=7, out_features=72, bias=True)
  (LGEBs): ModuleList(
    (0-4): 5 x LGEB(
      (phi_e): Sequential(
        (0): Linear(in_features=146, out_features=72, bias=False)
        (1): BatchNorm1d(72, eps=1e-05, momentum=0.1, affine=True, track_running_stats=True)
        (2): ReLU()
        (3): Linear(in_features=72, out_features=72, bias=True)
        (4): ReLU()
      )
      (phi_h): Sequential(
        (0): Linear(in_features=151, out_features=72, bias=True)
        (1): BatchNorm1d(72, eps=1e-05, momentum=0.1, affine=True, track_running_stats=True)
        (2): ReLU()
        (3): Linear(in_features=72, out_features=72, bias=True)
      )
      (phi_x): Sequential(
        (0): Linear(in_features=72, out_features=72, bias=True)
        (1): ReLU()
        (2): Linear(in_features=72, out_features=1, bias=False)
      )
      (phi_m): Sequential(
        (0): Linear(in_features=72, out_features=1, bias=True)
        (1): Sigmoid()
      )
    )
    (5): LGEB(
      (phi_e): Sequential(
        (0): Linear(in_features=146, out_features=72, bias=False)
        (1): BatchNorm1d(72, eps=1e-05, momentum=0.1, affine=True, track_running_stats=True)
        (2): ReLU()
        (3): Linear(in_features=72, out_features=72, bias=True)
        (4): ReLU()
      )
      (phi_h): Sequential(
        (0): Linear(in_features=151, out_features=72, bias=True)
        (1): BatchNorm1d(72, eps=1e-05, momentum=0.1, affine=True, track_running_stats=True)
        (2): ReLU()
        (3): Linear(in_features=72, out_features=72, bias=True)
      )
      (phi_m): Sequential(
        (0): Linear(in_features=72, out_features=1, bias=True)
        (1): Sigmoid()
      )
    )
  )
  (graph_dec): Sequential(
    (0): Linear(in_features=72, out_features=72, bias=True)
    (1): ReLU()
    (2): Dropout(p=0.2, inplace=False)
    (3): Linear(in_features=72, out_features=16, bias=True)
  )
)
#trainable parameters = 227614
Training for 100 epochs.
#batches(train) = 3
Starting training...
 current time: 2024-05-09 12:08:45.637471
Processing epoch #0
 current time: 2024-05-09 12:08:45.640194
::::: TRAIN LOOP :::::
Training model
Finished training model
 Running loss: 4.316569  [512/1088]
 Running loss: 3.976171  [1024/1088]
 lr = 4.269e-05
…
