…
[495/498] Loading from /home/laurits/ENREG/ntuples/20240402_full_stats/ZH_Htautau/reco_p8_ee_ZH_Htautau_ecm380_203391.parquet
[496/498] Loading from /home/laurits/ENREG/ntuples/20240402_full_stats/ZH_Htautau/reco_p8_ee_ZH_Htautau_ecm380_200948.parquet
[497/498] Loading from /home/laurits/ENREG/ntuples/20240402_full_stats/ZH_Htautau/reco_p8_ee_ZH_Htautau_ecm380_200123.parquet
[498/498] Loading from /home/laurits/ENREG/ntuples/20240402_full_stats/ZH_Htautau/reco_p8_ee_ZH_Htautau_ecm380_204727.parquet
Input data loaded
Using device: cuda
Building model...
Finished building model:
LorentzNet(
  (embedding): Linear(in_features=7, out_features=72, bias=True)
  (LGEBs): ModuleList(
    (0-4): 5 x LGEB(
      (phi_e): Sequential(
        (0): Linear(in_features=146, out_features=72, bias=False)
        (1): BatchNorm1d(72, eps=1e-05, momentum=0.1, affine=True, track_running_stats=True)
        (2): ReLU()
        (3): Linear(in_features=72, out_features=72, bias=True)
        (4): ReLU()
      )
      (phi_h): Sequential(
        (0): Linear(in_features=151, out_features=72, bias=True)
        (1): BatchNorm1d(72, eps=1e-05, momentum=0.1, affine=True, track_running_stats=True)
        (2): ReLU()
        (3): Linear(in_features=72, out_features=72, bias=True)
      )
      (phi_x): Sequential(
        (0): Linear(in_features=72, out_features=72, bias=True)
        (1): ReLU()
        (2): Linear(in_features=72, out_features=1, bias=False)
      )
      (phi_m): Sequential(
        (0): Linear(in_features=72, out_features=1, bias=True)
        (1): Sigmoid()
      )
    )
    (5): LGEB(
      (phi_e): Sequential(
        (0): Linear(in_features=146, out_features=72, bias=False)
        (1): BatchNorm1d(72, eps=1e-05, momentum=0.1, affine=True, track_running_stats=True)
        (2): ReLU()
        (3): Linear(in_features=72, out_features=72, bias=True)
        (4): ReLU()
      )
      (phi_h): Sequential(
        (0): Linear(in_features=151, out_features=72, bias=True)
        (1): BatchNorm1d(72, eps=1e-05, momentum=0.1, affine=True, track_running_stats=True)
        (2): ReLU()
        (3): Linear(in_features=72, out_features=72, bias=True)
      )
      (phi_m): Sequential(
        (0): Linear(in_features=72, out_features=1, bias=True)
        (1): Sigmoid()
      )
    )
  )
  (graph_dec): Sequential(
    (0): Linear(in_features=72, out_features=72, bias=True)
    (1): ReLU()
    (2): Dropout(p=0.2, inplace=False)
    (3): Linear(in_features=72, out_features=16, bias=True)
  )
)
#trainable parameters = 227614
Training for 350 epochs.
#batches(train) = 726
Starting training...
 current time: 2024-05-09 13:01:23.835208
Processing epoch #0
 current time: 2024-05-09 13:01:23.842514
::::: TRAIN LOOP :::::
Training model
Finished training model
 Running loss: 4.309712  [512/371596]
 Running loss: 1.631876  [51712/371596]
 Running loss: 1.260011  [102912/371596]
…
